…
Labels: ['Accelerating_and_revving_and_vroom', 'Accordion', 'Acoustic_guitar', 'Applause', 'Bark', 'Bass_drum', 'Bass_guitar', 'Bathtub_(filling_or_washing)', 'Bicycle_bell', 'Burping_and_eructation']...

Embedding columns: 128
Label columns: 80
Total features: 210

Train samples: 2819
Validation samples: 705

================================================================================
TRAINING MULTI-LABEL MODEL WITH 2 LAYERS: [200, 100]
================================================================================

X_train shape: (2819, 128)
y_train shape: (2819, 80)
X_val shape: (705, 128)
y_val shape: (705, 80)

Model architecture:
MultiLabelModel(
  (layers): Sequential(
    (0): Linear(in_features=128, out_features=200, bias=True)
    (1): ReLU()
    (2): BatchNorm1d(200, eps=1e-05, momentum=0.1, affine=True, track_running_stats=True)
    (3): Dropout(p=0.5, inplace=False)
    (4): Linear(in_features=200, out_features=100, bias=True)
    (5): ReLU()
    (6): BatchNorm1d(100, eps=1e-05, momentum=0.1, affine=True, track_running_stats=True)
    (7): Dropout(p=0.5, inplace=False)
    (8): Linear(in_features=100, out_features=80, bias=True)
  )
)
Total parameters: 54,580

Finding optimal learning rate...
██Epoch 1/3 : |----------------------------------------| 0.00% [0/45 00:00<?]Epoch 1/3 : |----------------------------------------| 2.22% [1/45 00:00<00:01]Epoch 1/3 : |█---------------------------------------| 4.44% [2/45 00:00<00:02 0.7730]Epoch 1/3 : |██------------------------
…
                                 
Validation Hamming Loss: 0.9833
Validation Accuracy (exact match): 0.0000
Mean per-label accuracy: 0.0167

Model saved as: vggish_multilabel_2layers_20251016_151526

================================================================================
TRAINING MULTI-LABEL MODEL WITH 5 LAYERS: [400, 300, 200, 150, 100]
================================================================================

X_train shape: (2819, 128)
y_train shape: (2819, 80)
X_val shape: (705, 128)
y_val shape: (705, 80)

Model architecture:
MultiLabelModel(
  (layers): Sequential(
    (0): Linear(in_features=128, out_features=400, bias=True)
    (1): ReLU()
    (2): BatchNorm1d(400, eps=1e-05, momentum=0.1, affine=True, track_running_stats=True)
    (3): Dropout(p=0.5, inplace=False)
    (4): Linear(in_features=400, out_features=300, bias=True)
    (5): ReLU()
    (6): BatchNorm1d(300, eps=1e-05, momentum=0.1, affine=True, track_running_stats=True)
    (7): Dropout(p=0.5, inplace=False)
    (8): Linear(in_features=300, out_features=200, bias=True)
    (9): ReLU()
    (10): BatchNorm1d(200, eps=1e-05, momentum=0.1, affine=True, track_running_stats=True)
    (11): Dropout(p=0.5, inplace=False)
    (12): Linear(in_features=200, out_features=150, bias=True)
    (13): ReLU()
    (14): BatchNorm1d(150, eps=1e-05, momentum=0.1, affine=True, track_running_stats=True)
    (15): Dropout(p=0.5, inplace=False)
    (16): Linear(in_features=150, out_features=100, bias=True)
    (17): ReLU()
    (18): BatchNorm1d(100, eps=1e-05, momentum=0.1, affine=True, track_running_stats=True)
    (19): Dropout(p=0.5, inplace=False)
    (20): Linear(in_features=100, out_features=80, bias=True)
  )
)
Total parameters: 287,730

Finding optimal learning rate...
██Epoch 1/3 : |----------------------------------------| 0.00% [0/45 00:00<?]Epoch 1/3 : |----------------------------------------| 2.22% [1/45 00:00<00:01]Epoch 1/3 : |█---------------------------------------| 4.44% [2/45 00:00<00:01 0.7692]Epoch 1/3 : |██-----------------------
…
